pretrained-models/model200_dark_faces.pth (torch, 322393 bytes, 14 tensors)

conv1.weight f4 [32, 3, 3, 3]
0.046520643 0.04562511 0.033987682 0.039170265 0.04328266 0.025133137 0.031853158 0.035398997
0.030407965 0.030434122 0.032489426 0.009797963 0.02956367 0.014346334 0.013971397 0.0223978
0.028436428 0.019076241 0.046193868 0.051498774 0.032849807 0.04051952 0.04305002 0.031763226
0.039777238 0.043681867 0.03469411 0.006294051 0.0071269246 -0.006003293 -0.0005528064 2.9495972e-05
-0.0012306257 -0.0142830815 -0.018242676 -0.02274394 0.004812319 0.0092642745 -0.0064053535 0.0032580213
0.006852812 -0.011589023 -0.017894346 0.0011842195 -0.02346693 -0.0027545462 -0.00411939 -0.013187358
-0.002082204 0.0052779736 0.0020673196 -0.036870226 -0.025114875 -0.017156035 -0.049560387 -0.034280658
-0.028551288 -0.021253353 0.0076969424 0.00622024 -0.027384523 0.0005358587 0.006170479 -0.023122292
-0.0188384 -0.009826715 -0.01949214 0.0046485607 0.021630011 -0.026938522 0.0034551504 0.008368035
-0.03315262 -0.01133462 0.0063383747 -0.012791726 0.01409577 0.022658084 -0.015210071 0.016636675
0.023337577 -0.05135016 -0.018347826 -0.030109344 -0.023826541 0.023660172 0.013787671 -0.015716445
0.025164498 0.017188428 -0.009794437 0.009264875 -0.0020503069 0.0048025204 0.0493629 0.013992035
-0.0040789237 0.033122182 -0.0021856052 -0.01443301 0.008405649 -0.0040251175 -0.011303675 0.012468222
-0.012799714 -0.03928333 -0.019900454 -0.06415181 -0.039444193 -0.018414523 0.0051987944 -0.044213016
-0.019692406 0.0054234564 -0.076397575 -0.07073313 -0.06513752 -0.050660405 -0.0007090519 0.015405635
-0.020476868 0.01821157 0.015712196 -0.06647192 0.0014183207 -0.010900717 -0.068686485 -0.017560633
0.0004805973 -0.05734862 -0.0019609777 -0.002169104 -0.08092097 -0.02654052 0.001791453 -0.17198533
-0.14514269 -0.15589409 -0.16036323 -0.114879936 -0.12645312 -0.17130911 -0.13084109 -0.15569888
0.039882682 0.054120094 0.036644034 0.047634315 0.07136601 0.04559384 0.031963944 0.043648615
0.009968839 -0.06403849 -0.038900502 -0.06648503 -0.035218943 -0.025786797 -0.069209464 -0.064571
-0.05120252 -0.09387869 -0.038462304 0.00020428137 -0.023335023 0.010028615 0.016000932 0.00056302664
0.008305809 0.019687254 0.0032765672 -0.01728749 0.010577571 -0.009048906 -0.02218199 0.022232633
-0.014527276 -0.004871855 0.010197632 0.000103899314 -0.033195626 -0.025112659 -0.06606676 -0.019836716
-0.0012643521 -0.02729249 -0.033206034 -0.0038272934 -0.03899848 4.1469658e-08 8.991951e-09 3.8551708e-08
9.064901e-08 5.4721745e-08 6.693308e-08 8.4059764e-08 9.3192924e-08 9.328556e-08 -5.4592586e-08 -2.5406788e-08
-9.962667e-08 8.083234e-08 7.533762e-08 -1.200227e-08 1.678826e-07 1.463721e-07 7.4559644e-08 -2.4778015e-07
-2.2558612e-07 -4.4404925e-07 9.2798324e-08 1.7488753e-07 -8.67804e-08 7.637972e-08 2.1974088e-07 -1.4945122e-08
-0.0047278306 0.036680806 0.032675143 -0.005580219 0.029823529 0.043382104 -0.041963622 0.008502187
0.022070186 -0.0058462825 0.03010346 0.024998687 -0.0030418255 0.034564003 0.0050365673 -0.052557796
-0.005697052 -0.0006650224 -0.086494155 -0.03092011 -0.077106215 -0.040149324 -0.0070777005 -0.038473845
-0.08685754 -0.062802404 -0.067749836 -1.2368606e-18 -1.0115033e-18 -1.0403657e-18 -9.768381e-19 -1.0233806e-18
-8.201415e-19 -8.944589e-19 -6.127294e-19 -5.4244933e-19 -2.373347e-20 -2.4737374e-20 -2.6151826e-20 -2.961807e-20
00000000: 6e8c 3e3d 65e1 3a3d ab36 0b3d 0071 203d
00000010: 2949 313d 02e4 cd3c 7578 023d 8afe 103d
00000020: 201a f93c fb50 f93c a213 053d a387 203c
00000030: 822f f23c e30c 6b3c 49e8 643c 977b b73c
00000040: 83f3 e83c c745 9c3c c835 3d3d 61f0 523d
00000050: 858d 063d ccf7 253d 3855 303d 281a 023d
00000060: 75ed 223d c2eb 323d 691b 0e3d 543e ce3b
00000070: fa88 e93b 46b7 c4bb 36ea 10ba 1e6e f737
00000080: f24c a1ba 9603 6abc aa71 95bc 8051 babc
00000090: a8b0 9d3b 2fc9 173c 00e4 d1bb 8784 553b
000000a0: 8e8d e03b e3df 3dbc 2a97 92bc d037 9b3a
000000b0: b83d c0bc 9e85 34bb f3fb 86bb ca0f 58bc
000000c0: 9675 08bb daf2 ac3b de7b 073b 3c05 17bd
000000d0: b6bd cdbc d08a 8cbc d5ff 4abd e069 0cbd
000000e0: 64e4 e9bc 831b aebc a236 fc3b 28d3 cb3b
000000f0: 8255 e0bc de78 0c3a bb31 ca3b f66a bdbc
00000100: fd52 9abc 3b00 21bc fbad 9fbc f452 983b
00000110: 6c31 b13c 2dae dcbc ce6f 623b 151a 093c
00000120: 0bcb 07bd d8b4 39bc 24b2 cf3b 6394 51bc
00000130: f2f1 663c 729d b93c a933 79bc a349 883c
00000140: 722e bf3c 8c54 52bd 2e4e 96bc dfa7 f6bc
00000150: e12f c3bc fad2 c13c afe5 613c c6bf 80bc
00000160: c725 ce3c bfce 8c3c d978 20bc b4cb 173c
00000170: 715e 06bb 765e 9d3b c130 4a3d d93e 653c
00000180: 7ea8 85bb 20ab 073d 5f3c 0fbb 6e78 6cbc
00000190: d9b7 093c 22e5 83bb 0d33 39bc 8347 4c3c
000001a0: e4b5 51bc 8fe7 20bd 4706 a3bc 0662 83bd
000001b0: 3c90 21bd 0eda 96bc a65a aa3b b518 35bd
000001c0: f851 a1bc 40b7 b13b 5576 9cbd 88dc 90bd
000001d0: d266 85bd 4981 4fbd abdf 39ba eb67 7c3c
000001e0: 1bbf a7bc 6e30 953c ddb6 803c 6e22 88bd
000001f0: f2e6 b93a ec98 32bc 80ab 8cbd 51db 8fbc
00000200: adf8 fb39 63e6 6abd bf83 00bb 8727 0ebb
00000210: e5b9 a5bd 816b d9bc 30cf ea3a ec1c 30be
00000220: 49a0 14be b3a2 1fbe 4236 24be 2c46 ebbd
00000230: ed7c 01be a86b 2fbe 35fb 05be 876f 1fbe
00000240: 065c 233d 08ad 5d3d 0e18 163d 331c 433d
00000250: 5828 923d 9bc0 3a3d a0ec 023d e4c8 323d
00000260: 5754 233c 9d26 83bd 2256 1fbd 4e29 88bd
00000270: bd41 10bd d53e d3bc b1bd 8dbd cd3d 84bd
00000280: bcb9 51bd 7843 c0bd a68a 1dbd 5d34 5639
00000290: 1729 bfbc 0f4f 243c 6314 833c 1498 133a
000002a0: 1715 083c 2a47 a13c adbb 563b 7f9e 8dbc
000002b0: 8c4d 2d3c dd41 14bc 01b7 b5bc 3621 b63c
000002c0: d003 6ebc 15a4 9fbb f813 273c 85e4 d938
000002d0: 23f8 07bd 10b9 cdbc 024e 87bd 9c80 a2bc
000002e0: 9eb8 a5ba 8094 dfbc 0d03 08bd 54d3 7abb
000002f0: dfbc 1fbd 5f1c 3233 057b 1a32 0d94 2533
00000300: d2aa c233 3207 6b33 dabc 8f33 5884 b433
00000310: 5a21 c833 4754 c833 2f79 6ab3 1e3e dab2
00000320: 57f2 d5b3 0d96 ad33 4bc9 a133 8b32 4eb2
00000330: 3843 3434 752a 1d34 991d a033 a506 85b4
00000340: a438 72b4 aa65 eeb4 6b48 c733 b8c8 3b34
00000350: 085c bab3 3206 a433 eaf1 6b34 ac60 80b2
00000360: ebeb 9abb 9d3e 163d 5fd6 053d 45da b6bb
00000370: 7950 f43c 6fb1 313d 0ce2 2bbd c24c 0b3c
00000380: 89cc b43c 2c92 bfbb 889b f63c 0cca cc3c
00000390: 5d59 47bb fc92 0d3d ca09 a53b d846 57bd
000003a0: 56ae babb e654 2eba d923 b1bd 2c4c fdbc
000003b0: dde9 9dbd 9e73 24bd 0eec e7bb c096 1dbd
000003c0: 5ee2 b1bd 8c9e 80bd 6dc0 8abd 4687 b6a1
000003d0: 8445 95a1 e887 99a1 e627 90a1 3a06 97a1
000003e0: 2410 72a1 b4ff 83a1 86d8 34a1 501a 20a1
000003f0: 0228 e09e 4da3 e99e 3cff f69e 0dde 0b9f

conv1.bias f4 [32]
-0.14153896 0.21834671 0.20253448 0.089271754 0.10184784 0.09107259 0.11562562 -0.001946922
0.0673036 -0.00037021656 -4.1078977e-24 -0.0012038733 -1.4675306e-22 -0.016000984 0.0912115 0.004626382
-0.04800073 0.027931908 -0.003601552 0.026009459 0.047890395 0.06016527 0.060067423 0.0073738787
-0.0009149984 -0.002410719 -1.6362927e-07 -4.0285676e-28 -9.23889e-17 -5.924523e-12 0.022479003 0.18920256
00000000: 97ef 10be 4896 5f3e 3365 4f3e 1cd4 b63d
00000010: 9a95 d03d 4484 ba3d 20cd ec3d dd2f ffba
00000020: 78d6 893d a019 c2b9 a6ea 9e98 49cb 9dba
00000030: df69 319b 7f14 83bc 18cd ba3d e898 973b
00000040: 6a9c 44bd 75d1 e43c 0408 6cbb ca11 d53c
00000050: b828 443d dc6f 763d 4209 763d 94a0 f13b
00000060: 81dc 6fba 27fd 1dbb 12b2 2fb4 3f57 ff91
00000070: c808 d5a4 5c73 d0ac e325 b83c 51be 413e

conv2.weight f4 [32, 32, 3, 3]
-0.0072099343 -0.0049445527 -0.0020187113 -0.007817784 -0.0045856447 -0.0008915053 -0.00624478 -0.0037582605
0.0003082894 0.0008197752 0.0007517851 -0.003010677 0.009875348 0.01482232 0.0047471616 0.00706196
0.0055280887 0.00080622913 -0.0005963865 0.014485783 -0.0019912303 0.014479166 0.04273886 -0.010718951
0.0047440934 0.009363649 -0.024304 0.006750798 0.014134951 0.0070737507 0.015270037 0.02881577
0.0133044785 -0.0029169053 0.012538328 0.0066151163 0.023457007 0.014944973 -0.013064407 0.023568133
0.01722844 0.0092149405 0.027883856 0.028745914 0.032064136 0.058499463 0.04059334 0.08003723
0.041239463 0.0143753905 0.034065224 0.055893388 0.039278127 0.057593387 0.0035514815 0.015387832
0.010384087 0.018990938 0.0057052616 -0.006055677 -0.0007581124 0.004765045 4.8030048e-05 -3.0653805e-08
-1.7914179e-08 -2.5187314e-08 -3.6197992e-08 -1.2071575e-08 -3.0402166e-08 -3.9376708e-08 -1.9242698e-08 -3.318056e-08
0.014008319 -0.0038746716 -0.0016009698 0.007714483 0.009784662 0.0050022 0.021369115 0.01240476
0.008694924 -6.0753e-41 -7.0312e-41 -8.925e-42 -6.9682e-41 -5.6084e-41 4.783e-42 2.3e-43
3.149e-42 5.6684e-41 1.10717e-40 1.35773e-40 -7.2308e-41 9.2041e-41 1.02631e-40 9.5662e-41
6.2562e-41 3.9113e-41 2.3515e-41 -7.2142e-41 2.2194e-41 -8.0349e-41 6.479e-41 6.5872e-41
6.9523e-41 -7.4357e-41 5.49e-41 2.3124e-41 2.5588938e-24 2.6441742e-24 2.608708e-24 2.6949175e-24
2.7723592e-24 2.733263e-24 2.6368402e-24 2.7072545e-24 2.6512033e-24 -0.04470909 -0.048020005 -0.04640742
-0.036180187 -0.03913938 -0.031781048 -0.024102744 -0.026531192 -0.0188101 -0.0011248259 0.029997759
0.033392247 -0.007844961 0.01492641 0.019372623 -0.0114602465 0.0033829443 0.017946772 0.008229831
0.007132951 -0.045894414 0.0304872 0.035950586 -0.0046717394 0.02837903 0.023244362 -0.008090959
0.0060418793 0.007866596 0.024653696 -0.0022908326 0.0019461405 0.024379922 0.012483285 0.017115049
0.035554424 -0.017502274 1.3910176e-05 -0.036426637 -0.0043006786 0.009546233 -0.035450958 -0.052215684
-0.021726679 -0.069642544 1.031847e-12 1.0902785e-12 9.67364e-13 1.2165846e-12 1.3191821e-12 1.1945062e-12
1.0367436e-12 1.1317009e-12 9.955072e-13 -0.02809228 -0.028897386 -0.027468814 -0.026295327 -0.027572665
-0.027909782 -0.026486533 -0.02714734 -0.026618542 0.0087867025 -0.00077924895 0.02172458 -0.0071056923
-0.01689576 0.00426611 0.0076400964 -0.0013328131 0.019530507 0.04428652 0.019272001 0.032799505
0.01827408 0.006403759 0.0095585985 0.030918341 0.018319402 0.01799462 0.03336354 0.04101617
0.0147934435 0.039815582 0.032682277 0.0107819345 0.032300904 0.038849376 0.0069741346 0.05803914
0.07296278 0.08562776 0.06065598 0.07069363 0.08308518 0.051364448 0.058040842 0.065164514
1.056208e-20 1.4356626e-20 5.839621e-21 1.3428526e-20 1.9293778e-20 8.5903514e-21 7.8198674e-21 1.1768569e-20
5.5268206e-21 -3.6224702e-19 -5.1086375e-19 -3.4269142e-19 -4.073932e-19 -5.8611077e-19 -3.707868e-19 -3.1803996e-19
-4.5773745e-19 -2.9848342e-19 2.6627725e-21 3.3568262e-21 -3.3324736e-21 3.3250827e-21 2.3029732e-21 2.2174747e-21
1.4670515e-21 3.5965025e-21 3.011939e-21 -5.3013e-41 -7.4061e-41 -1.04884e-40 -8.3491e-41 1.1209e-40
1.13058e-40 -7.2572e-41 -8.7284e-41 -1.10597e-40 5.056e-42 -4.5866e-41 3.0118e-41 6.5228e-41
00000000: 5041 ecbb ea05 a2bb 5b4c 04bb 2a16 00bc
00000010: 2d43 96bb e8b3 69ba 03a1 ccbb 264d 76bb
00000020: e7a1 a139 2fe6 563a 7213 453a c74e 45bb
00000030: 36cc 213c 51d9 723c 148e 9b3b 0468 e73b
00000040: f824 b53b 1f59 533a d256 1cba c755 6d3c
00000050: 4d7f 02bb 063a 6d3c f10e 2f3d 8a9e 2fbc
00000060: 5774 9b3b fe69 193c 2f19 c7bc cc35 dd3b
00000070: 4896 673c ecca e73b 2d2f 7a3c 0d0f ec3c
00000080: 07fb 593c 8d29 3fbb 8f6d 4d3c 9ec3 d83b
00000090: e928 c03c c3db 743c 180c 56bc f511 c13c
000000a0: a822 8d3c 43fa 163c af6c e43c 8d7c eb3c
000000b0: af55 033d 229d 6f3d 3445 263d 8fea a33d
000000c0: b6ea 283d c286 6b3c fa87 0b3d 77f0 643d
000000d0: 1ae2 203d 0be7 6b3d f9bf 683b 3f1d 7c3c
000000e0: 0522 2a3c e292 9b3c 34f3 ba3b b36e c6bb
000000f0: 10bc 46ba 1824 9c3b df73 4938 37a8 03b3
00000100: b2e1 99b2 7d5b d8b2 1d78 1bb3 5963 4fb2
00000110: 8993 02b3 261f 29b3 244b a5b2 6982 0eb3
00000120: 2683 653c 34ee 7dbb a2d7 d1ba c6c9 fc3b
00000130: d94f 203c 7fe9 a33b 480e af3c 563d 4b3c
00000140: 2875 0e3c 5ba9 0080 00c4 0080 e118 0080
00000150: 3fc2 0080 579c 0080 550d 0000 a400 0000
00000160: c708 0000 039e 0000 a234 0100 7b7a 0100
00000170: 91c9 0080 9300 0100 181e 0100 ab0a 0100
00000180: 66ae 0000 086d 0000 8d41 0000 1ac9 0080
00000190: de3d 0000 fbdf 0080 9cb4 0000 a0b7 0000
000001a0: cdc1 0000 47cf 0080 0a99 0000 7640 0000
000001b0: 1dfc 4518 4495 4c18 c9d6 4918 5782 5018
000001c0: 3b80 5618 da79 5318 0004 4c18 b376 5118
000001d0: 7e20 4d18 e120 37bd a0b0 44bd b515 3ebd
000001e0: ad31 14bd 9d50 20bd d82c 02bd 1e73 c5bc
000001f0: f157 d9bc a417 9abc e56e 93ba dcbd f53c
00000200: 4fc6 083d 2788 00bc e78d 743c 56b3 9e3c
00000210: c2c3 3bbc 63b4 5d3b 1c05 933c 6ad6 063c
00000220: 88bb e93b c8fb 3bbd 4bc0 f93c ec40 133d
00000230: 6415 99bb 247b e83c f66a be3c f18f 04bc
00000240: f5fa c53b e5e2 003c 8cf6 c93c cb21 16bb
00000250: a415 ff3a 67b8 c73c b186 4c3c dc34 8c3c
00000260: 84a1 113d ee60 8fbc c05f 6937 1934 15bd
00000270: b5ec 8cbb ce67 1c3c 0635 11bd 1de0 55bd
00000280: 26fc b1bc c0a0 8ebd 3538 912b 6c71 992b
00000290: f624 882b 1438 ab2b 8ba8 b92b 9f1c a82b
000002a0: a0e8 912b d245 9f2b ed1a 8c2b c821 e6bc
000002b0: 36ba ecbc 4706 e1bc 4c69 d7bc 12e0 e1bc
000002c0: 0ea3 e4bc 49fa d8bc 1964 debc 210f dabc
000002d0: 1af6 0f3c 8346 4cba bff7 b13c ded6 e8bb
000002e0: fa68 8abc b9ca 8b3b c659 fa3b c9b1 aeba
000002f0: 71fe 9f3c c865 353d 51e0 9d3c c658 063d
00000300: 86b3 953c a0d6 d13b ab9b 1c3c 7648 fd3c
00000310: 9212 963c 7469 933c 35a8 083d 9200 283d
00000320: 3360 723c aa15 233d dadd 053d b6a6 303c
00000330: f44d 043d 8620 1f3d 4887 e43b 73ba 6d3d
00000340: 836d 953d 9b5d af3d 6872 783d d2c7 903d
00000350: 9028 aa3d 8763 523d 3cbc 6d3d f974 853d
00000360: 1683 471e 3198 871e 599d dc1d 5ea8 7d1e
00000370: 7e39 b61e 6444 221e 8fb6 131e 4f4d 5e1e
00000380: 21cc d01d 39d5 d5a0 c6c7 16a1 104a caa0
00000390: 857b f0a0 47fd 2ca1 b8df daa0 d7bc bba0
000003a0: aa19 07a1 8a31 b0a0 8331 491d 76a2 7d1d
000003b0: 6acb 7b9d 743c 7b1d fb01 2e1d 338c 271d
000003c0: ceb1 dd1c 3ddf 871d 6093 631d c793 0080
000003d0: 74ce 0080 6024 0180 bde8 0080 7638 0100
000003e0: 293b 0100 4dca 0080 50f3 0080 4d34 0180
000003f0: 180e 0000 db7f 0080 f553 0000 d4b5 0000

conv2.bias f4 [32]
-0.0014387777 -0.052322745 -0.016575739 -9.582111e-21 0.07607453 -5.4836357e-05 0.029785288 0.0328932
-9.312043e-23 0.03786017 -0.0073390384 0.05773511 0.063283004 -2.814225e-32 0.03543805 -0.0029419453
0.089347504 0.015727216 0.052955363 0.0072878436 -0.0007658858 0.06762282 -2.0952305e-34 -0.00015991814
0.037710905 0.017176433 -0.0029027998 -0.045228273 -0.0010706714 0.051462844 0.056302764 0.00033878177
00000000: 5e95 bcba 6050 56bd d8c9 87bc 3f00 359e
00000010: f7cc 9b3d 1700 66b8 4700 f43c 05bb 063d
00000020: c126 e19a 4413 1b3d 517c f0bb a77b 6c3d
00000030: 859a 813d 771f 128b 7d27 113d a7cd 40bb
00000040: d3fb b63d 5dd6 803c b9e7 583d ddce ee3b
00000050: bac5 48ba d57d 8a3d 8040 8b87 b3af 27b9
00000060: c076 1a3d 97b5 8c3c e63c 3ebb 4841 39bd
00000070: c555 8cba b4ca 523d ba9d 663d 859e b139

conv3.weight f4 [32, 32, 3, 3]
-4.907091e-07 -1.4365831e-06 -1.9336076e-05 -6.9269123e-07 -5.0045264e-07 -1.0848708e-05 -1.6335574e-06 -9.9784e-07
-4.080621e-06 -0.0001210216 -0.0002316555 -0.0003699105 -0.00014548904 -0.00026693087 -0.0004228484 -0.00013958474
-0.00027880963 -0.00046365513 -9.080286e-06 1.2686204e-06 1.1479025e-05 -4.832019e-05 -2.9610695e-05 -8.1052585e-06
-8.24625e-05 -6.1999766e-05 -3.097009e-05 -1.774e-42 4.832e-42 3.3896e-41 1.512e-42 1.0898e-40
-1.354e-42 -1.303e-42 -1.19894e-40 3.8653e-41 -0.00085332245 -0.0009439618 -0.0011643022 -0.0008619256
-0.00095062907 -0.001168073 -0.0008367294 -0.0009190073 -0.0011361736 5.7114e-41 1.37e-42 6.7007e-41
1.88661e-40 -1.09645e-40 -8.3781e-41 9.9418e-41 1.13193e-40 6.1639e-41 3.007503e-06 3.2229057e-06
5.9219997e-06 1.6005537e-06 2.0337693e-06 4.297788e-06 -9.2988483e-07 -2.0584226e-08 1.2559693e-06 -0.00026605016
-0.00035553382 -0.0005768443 -0.00023036594 -0.00031806124 -0.0005378213 -0.00022361927 -0.00029987676 -0.00051532016
9.7884e-41 8.2615e-41 -1.40742e-40 9.3384e-41 9.7825e-41 1.04412e-40 -1.67057e-40 -4.0406e-41
-1.09074e-40 -0.00012362222 -0.00018168306 -0.00037815227 -8.316845e-05 -0.00014267101 -0.00033666455 -5.8316753e-05
-0.00010994492 -0.00029601963 -4.215458e-05 -8.433354e-05 -0.00023664976 -2.6676704e-05 -6.615081e-05 -0.0002104461
-1.8802462e-05 -5.095469e-05 -0.0001856723 -0.00030505186 -0.00034736405 -0.00049242505 -0.00030259576 -0.00034482693
-0.00048682766 -0.0002880399 -0.00032531546 -0.0004652526 -0.00081175735 -0.0009290001 -0.0012071712 -0.00080629165
-0.00092676864 -0.0012037432 -0.00074591447 -0.0008638309 -0.0011445391 -1.3549e-41 -9.0827e-41 -1.20125e-40
9.562e-42 7.3516e-41 9.7386e-41 -9.5438e-41 1.09448e-40 1.97334e-40 -0.0003999563 -0.0004885828
-0.000722124 -0.0003701001 -0.00046364916 -0.00070022396 -0.00031747587 -0.00040505623 -0.00064025464 7.9612e-41
3.3303e-41 1.57642e-40 -9.4717e-41 1.036e-41 -1.47673e-40 1.46493e-40 8.733e-42 -1.07969e-40
1.676603e-05 1.594298e-05 2.000423e-05 9.767667e-06 -1.49690995e-05 -2.7095043e-06 8.583754e-06 1.6339436e-05
1.671222e-05 -2.4911198e-05 -4.114736e-05 -0.00012182771 -1.6141168e-05 -3.247549e-05 -0.00010963921 -6.7051756e-06
-1.8322118e-05 -8.187346e-05 -3.7025675e-05 -6.0944796e-05 -0.00015530341 -3.1925778e-05 -5.6348774e-05 -0.00014844463
-1.5260097e-05 -3.2732783e-05 -0.00010827256 4.0026007e-06 6.7335227e-06 1.593955e-06 1.6170179e-06 4.97664e-06
5.3709687e-06 -6.4999244e-07 2.3742623e-06 6.8317377e-06 4.6481e-41 -9.1377e-41 -1.29619e-40 -1.96508e-40
-1.9634e-41 4.9527e-41 -1.41677e-40 -1.17478e-40 8.404e-41 -0.00083817093 -0.00097243715 -0.0012549157
-0.0008250419 -0.00096050533 -0.0012417767 -0.00079664553 -0.0009255304 -0.0012087948 1.4179e-40 -1.56629e-40
1.32545e-40 1.63482e-40 6.1416e-41 -1.0231e-40 -9.7e-42 4.0081e-41 1.3243e-40 1.37417e-40
-1.66051e-40 -6.332e-41 1.97985e-40 -1.17118e-40 -1.34736e-40 6.4776e-41 8.6782e-41 -1.88559e-40
-0.000722053 -0.00076244347 -0.0009882343 -0.00072692375 -0.00076663523 -0.0009881033 -0.00070907094 -0.00074283424
-0.00096276635 -1.7831007e-05 -2.9561757e-05 -8.908363e-05 -3.6968086e-05 -5.1052826e-05 -0.0001293916 -2.7939517e-05
-3.3676562e-05 -0.00010208945 -0.0006480378 -0.0007275401 -0.0010033849 -0.0006374237 -0.00071491103 -0.0009837348
-0.00064611854 -0.0007166349 -0.0009832111 3.5689961e-06 -4.6424416e-06 -5.8060108e-05 3.1663583e-06 -3.1868404e-07
-4.264357e-05 2.6319979e-06 3.4387222e-06 -3.623692e-05 -1.95827e-40 2.9045e-41 1.35197e-40 -8.9031e-41
00000000: 46b9 03b5 9fd0 c0b5 e833 a2b7 61f1 39b5
00000010: d856 06b5 d902 36b7 9b40 dbb5 85ed 85b5
00000020: 44ec 88b6 facc fdb8 8de8 72b9 8cf0 c1b9
00000030: 6b8e 18b9 dbf2 8bb9 c0b1 ddb9 7e5d 12b9
00000040: 322d 92b9 bd16 f3b9 8857 18b7 7745 aa35
00000050: 0996 4037 69ab 4ab8 7c64 f8b7 d2fb 07b7
00000060: b8ef acb8 df05 82b8 e2e5 01b8 f204 0080
00000070: 780d 0000 7d5e 0000 3704 0000 cb2f 0100
00000080: c603 0080 a203 0080 374e 0180 c06b 0000
00000090: 80b1 5fba 3474 77ba 809b 98ba d9f2 61ba
000000a0: a333 79ba 071a 99ba f657 5bba 89e9 70ba
000000b0: a9eb 94ba 369f 0000 d203 0000 caba 0000
000000c0: e90d 0200 a531 0180 8ce9 0080 2315 0100
000000d0: 893b 0100 d3ab 0000 82d4 4936 1949 5836
000000e0: 97b5 c636 9bd2 d635 e47b 0836 b835 9036
000000f0: 339d 79b5 31d1 b0b2 c792 a835 a67c 8bb9
00000100: f166 bab9 5e37 17ba 638e 71b9 75c1 a6b9
00000110: 94fc 0cba 577b 6ab9 c738 9db9 8d16 07ba
00000120: dc10 0100 4ce6 0000 5588 0180 5104 0100
00000130: b210 0100 0f23 0100 b0d1 0180 a370 0080
00000140: 0e30 0180 96a0 01b9 2d82 3eb9 bd42 c6b9
00000150: b96a aeb8 f599 15b9 5a82 b0b9 2399 74b8
00000160: 3b92 e6b8 1533 9bb9 23cf 30b8 39dc b0b8
00000170: 3025 78b9 c9c7 dfb7 72ba 8ab8 32ab 5cb9
00000180: fbb9 9db7 2fb8 55b8 07b1 42b9 5eef 9fb9
00000190: 6a1e b6b9 1616 01ba b7a5 9eb9 e3c9 b4b9
000001a0: e73c ffb9 1004 97b9 1a8f aab9 26ed f3b9
000001b0: 1dcc 54ba 2488 73ba f239 9eba 515d 53ba
000001c0: 64f2 72ba ebc6 9dba 7989 43ba b672 62ba
000001d0: 5c04 96ba c525 0080 30fd 0080 dc4e 0180
000001e0: a81a 0000 efcc 0000 790f 0100 0b0a 0180
000001f0: 1931 0100 1626 0200 3ab1 d1b9 3d14 00ba
00000200: ec4c 3dba ff09 c2b9 f015 f3b9 3c8f 37ba
00000210: e472 a6b9 ba5d d4b9 c3d6 27ba eddd 0000
00000220: d65c 0000 71b7 0100 0808 0180 e11c 0000
00000230: a79b 0180 5d98 0100 5818 0000 f92c 0180
00000240: c6a4 8c37 4abd 8537 c2ce a737 cfdf 2337
00000250: cb23 7bb7 eed4 35b6 f102 1037 ac10 8937
00000260: 3831 8c37 64f8 d0b7 a495 2cb8 c17d ffb8
00000270: e566 87b7 4b36 08b8 1aee e5b8 05fd e0b6
00000280: 73b2 99b7 7bb3 abb8 044c 1bb8 fa9e 7fb8
00000290: f1d8 22b9 0be8 05b8 0958 6cb8 cda7 1bb9
000002a0: cf02 80b7 8f4a 09b8 6310 e3b8 144e 8636
000002b0: 85f0 e136 e0ef d535 5008 d935 03fd a636
000002c0: 4538 b436 247b 2eb5 8455 1f36 2e3c e536
000002d0: 9281 0000 b9fe 0080 5369 0180 c923 0280
000002e0: bb36 0080 108a 0000 f08a 0180 7b47 0180
000002f0: 45ea 0000 b3b8 5bba 27eb 7eba fc7b a4ba
00000300: a047 58ba 6cca 7bba 1dc3 a2ba fad5 50ba
00000310: 4b9f 72ba 6c70 9eba 418b 0100 9eb4 0180
00000320: 7b71 0100 b9c7 0100 34ab 0000 331d 0180
00000330: 0a1b 0080 bb6f 0000 2971 0100 107f 0100
00000340: e2ce 0180 83b0 0080 e727 0200 7a46 0180
00000350: 9777 0180 92b4 0000 eaf1 0000 a00d 0280
00000360: 2848 3dba b7de 47ba a487 81ba 078f 3eba
00000370: 05f8 48ba 3f83 81ba f2e0 39ba c3ba 42ba
00000380: 2862 7cba cc93 95b7 64fb f7b7 69d2 bab8
00000390: 2e0e 1bb8 8e21 56b8 4bad 07b9 a85f eab7
000003a0: ef3f 0db8 db18 d6b8 15e1 29ba 64b8 3eba
000003b0: 0384 83ba c818 27ba de68 3bba aaf0 80ba
000003c0: 4860 29ba 8edc 3bba 17df 80ba e382 6f36
000003d0: 45c6 9bb6 9185 73b8 9f7d 5436 9a17 abb4
000003e0: 2fdc 32b8 61a1 3036 ccc4 6636 19fd 17b8
000003f0: e321 0280 f750 0000 e078 0100 2ff8 0080

conv3.bias f4 [32]
-0.002307469 0.06821053 0.036579482 0.056614723 0.0060574375 0.03933449 0.07932445 0.0382702
-2.3375938e-18 0.046490673 0.06387528 0.07092977 0.054030236 0.033028893 0.007903119 0.06805929
0.055151023 -0.0047194446 -9.450381e-24 -1.8284226e-24 0.064539544 0.02424025 0.027504174 0.059003975
-4.3326358e-19 0.059359405 0.056171857 0.011941303 0.046157263 -1.8199377e-35 0.0747868 -2.621664e-17
00000000: e838 17bb f6b1 8b3d 5ed4 153d d7e4 673d
00000010: 787d c63b 341d 213d db74 a23d 37c1 1c3d
00000020: e67b 2ca2 016d 3e3d 0bd1 823d a143 913d
00000030: cf4e 5d3d 4e49 073d 157c 013c ab62 8b3d
00000040: 0ae6 613d 92a5 9abb 05cc 3699 a477 0d98
00000050: 4f2d 843d 7d93 c63c 6f50 e13c 27ae 713d
00000060: f1c0 ffa0 d922 733d 7614 663d 74a5 433c
00000070: 660f 3d3d 6b87 c185 d229 993d 4ace f1a3

conv4.weight f4 [32, 32, 3, 3]
0.00063948997 0.00053657696 0.0006158312 0.0006473421 0.00054344424 0.00061876513 0.0005965239 0.0004902517
0.00056345447 0.006089293 0.006220894 0.008829855 0.001883794 -0.0070262216 -0.0033051402 -0.0015511332
-0.004331587 0.0027281267 0.026808485 0.016307164 0.02118347 0.026272459 0.013074561 0.012255096
0.02473046 0.02240132 0.03836764 0.027127177 0.010725341 0.010909768 0.006818031 -0.0024027398
-0.002174238 -0.0019732057 -0.0058468427 -0.0049137105 -0.007454682 -0.004715325 -0.015125794 0.016635055
-0.003012431 0.004434812 0.054212704 0.019000683 0.053633623 0.024897847 0.013122442 0.021221727
0.007960223 0.00014856251 0.0077890274 0.011099104 0.0015761828 0.01279742 0.010977247 0.020341551
0.05146991 0.023999654 0.03355248 0.0662082 0.03996197 0.048321955 0.08246098 -0.0036079688
0.008415946 0.0023268375 -0.0040775808 -0.0024887142 0.003805289 -0.0017541071 -0.00045802747 0.013365294
-7.035e-42 -6.8442e-41 9.2877e-41 5.8936e-41 9.983e-42 8.0194e-41 -9.1705e-41 -2.7048e-41
-7.544e-41 0.053787164 0.021656796 0.045064963 0.028498068 -0.003261713 0.016539948 0.04433365
0.014216736 0.035945892 -0.01093653 -0.000521003 0.00046575934 -0.023942115 0.0009730863 0.008723982
-0.02213674 -0.006364169 0.007013341 0.01108148 0.0064229006 0.0076759285 0.00032138472 0.011565704
0.0025787402 0.0059393 0.0016108768 0.013106015 -0.007358649 -0.014428054 0.002147737 -0.026710074
-0.007545923 0.004886658 -0.016193872 -0.018028736 -0.0060639274 0.010129065 0.006436704 0.0067576393
0.0004112491 -0.0018552665 -0.0020304108 0.0042991494 -0.00276001 0.008049364 -0.0058657173 -0.0011259365
0.00092813716 -0.0059916023 -0.006743565 -0.0011244176 -0.0031002369 -0.004248347 -0.0025229787 0.0036641234
0.0024306232 0.007731732 0.0033060736 0.0007697878 0.015197375 0.0026414013 0.001754474 0.016321499
0.015373245 0.013712798 0.009658255 0.009002679 0.008243266 0.0028630323 0.013168105 0.013400972
0.011544014 -0.00024998517 -0.00034215566 -0.00033366575 -0.00027097465 -0.00037215167 -0.00035662638 -2.5736103e-06
-9.564849e-05 -9.604357e-05 8.4672e-41 -8.8634e-41 -9.0906e-41 4.5321e-41 -3.3041e-41 -2.8127e-41
-7.9891e-41 6.395e-41 -6.089e-41 1.6329419e-26 1.15930136e-26 4.900331e-27 2.2372644e-26 1.9433937e-26
1.2725231e-26 3.7263802e-26 3.5664506e-26 2.854487e-26 0.015698982 0.00956698 0.0016952298 0.0035614744
0.0050067836 0.00069659064 0.0020583638 0.009790355 0.007624093 -0.004453163 -0.0036691471 0.00072083646
-0.006522455 -0.004809294 -0.0040470473 -0.012377706 0.005819801 -0.011831612 -0.0012382505 -0.0016065722
0.00025684963 -0.008854104 -0.0021882488 -0.006017199 -0.011511652 -0.008323631 0.011484615 -0.0002143681
0.004297244 0.0070076543 -0.0074742166 -0.0030042848 -0.0054592392 -0.005127663 -0.0061356532 0.00048087878
-7.7308e-41 -6.4237e-41 1.7466e-41 9.583e-42 -2.771e-41 -3.066e-41 -6.3441e-41 7.4784e-41
-9.703e-42 -0.002838137 0.0040580225 -0.0006081058 0.0013917001 0.005381201 0.0029950053 0.0030313483
0.0044199903 0.00024671367 0.018026112 0.00983069 0.015274948 0.008042596 0.001095896 0.0012546206
0.0032384896 0.0024963277 0.0066407165 0.013602122 0.027046265 0.080944486 -0.0023598592 0.0028319517
0.031276215 -0.022368453 0.006075902 0.03686104 -0.0069334283 0.0061887405 0.0043773693 -0.012708118
00000000: 72a3 273a 12a9 0c3a bb6f 213a 65b2 293a
00000010: ed75 0e3a a034 223a 0b60 1c3a 3c84 003a
00000020: cab4 133a b188 c73b a4d8 cb3b 19ab 103c
00000030: a3e9 f63a 383c e6bb 0d9b 58bb 654f cbba
00000040: fcef 8dbb 5fca 323b 789d db3c 9a96 853c
00000050: f588 ad3c 5739 d73c af36 563c 99c9 483c
00000060: 8997 ca3c f982 b73c 6327 1d3d d039 de3c
00000070: 57b9 2f3c e2be 323c ca69 df3b 4977 1dbb
00000080: a97d 0ebb e650 01bb df96 bfbb 3103 a1bb
00000090: 6846 f4bb 0383 9abb 2ed2 77bc 3d46 883c
000000a0: 356c 45bb e651 913b 240e 5e3d 52a7 9b3c
000000b0: eeae 5b3d 92f6 cb3c 83ff 563c 30d9 ad3c
000000c0: 986b 023c 72c7 1b39 193b ff3b 04d9 353c
000000d0: eb97 ce3a 45ac 513c e9d9 333c 53a3 a63c
000000e0: 1dd2 523d ec9a c43c 536e 093d 2a98 873d
000000f0: 2aaf 233d 3eed 453d 4de1 a83d ac73 6cbb
00000100: 09e3 093c db7d 183b 3a9d 85bb b219 23bb
00000110: 2862 793b 11ea e5ba 6823 f0b9 1bfa 5a3c
00000120: 9c13 0080 cabe 0080 e702 0100 4aa4 0000
00000130: d41b 0000 8cdf 0000 a3ff 0080 664b 0080
00000140: 4cd2 0080 ee4f 5c3d 9869 b13c 0a96 383d
00000150: c874 e93c 77c2 55bb c97e 873c 3497 353d
00000160: 50ed 683c 003c 133d 222f 33bc eb93 08ba
00000170: 2931 f439 4122 c4bc b716 7f3a 08ef 0e3c
00000180: 1c58 b5bc 858a d0bb 2bd0 e53b 198f 353c
00000190: 3277 d23b 5b86 fb3b 877f a839 147e 3d3c
000001a0: 1500 293b 769e c23b 0e24 d33a 9cba 563c
000001b0: d220 f1bb a563 6cbc 0cc1 0c3b 16cf dabc
000001c0: ca43 f7bb 4220 a03b 03a9 84bc 00b1 93bc
000001d0: e9b3 c6bb 61f4 253c fdea d23b 306f dd3b
000001e0: eb9c d739 6a2c f3ba a410 05bb e1df 8c3b
000001f0: 49e1 34bb 7be1 033c 3435 c0bb 2994 93ba
00000200: 3b4e 733a 3455 c4bb 20f9 dcbb 3261 93ba
00000210: 582d 4bbb b835 8bbb 8f58 25bb ca21 703b
00000220: 174b 1f3b 785a fd3b b6aa 583b 96cb 493a
00000230: 69fe 783c 5c1b 2d3b 61f6 e53a aab4 853c
00000240: 10e0 7b3c a5ab 603c a83d 1e3c f97f 133c
00000250: c30e 073c b6a1 3b3b 09bf 573c c08f 5b3c
00000260: 1b23 3d3c 7110 83b9 5b63 b3b9 dcef aeb9
00000270: 9a11 8eb9 5a1d c3b9 95f9 bab9 4ab6 2cb6
00000280: e496 c8b8 006b c9b8 08ec 0000 13f7 0080
00000290: 69fd 0080 567e 0000 1b5c 0080 684e 0080
000002a0: b4de 0080 44b2 0000 bda9 0080 ffb7 a114
000002b0: 909f 6514 431f c213 6491 dd14 e276 c014
000002c0: 960c 7c14 7b85 3815 229a 3015 ec58 0d15
000002d0: 279b 803c d3be 1c3c 7932 de3a a067 693b
000002e0: f20f a43b 689b 363a 9de5 063b ba67 203c
000002f0: 87d3 f93b d7eb 91bb 1376 70bb 84f6 3c3a
00000300: 51ba d5bb 4897 9dbb 189d 84bb ddcb 4abc
00000310: 07b4 be3b 61d9 41bc cb4c a2ba 9e93 d2ba
00000320: c6a9 8639 ce10 11bc b968 0fbb ec2b c5bb
00000330: 5e9b 3cbc d75f 08bc f729 3c3c 00c8 60b9
00000340: e5cf 8c3b 77a0 e53b 46ea f4bb 89e3 44bb
00000350: 6be3 b2bb f405 a8bb 970d c9bb 751e fc39
00000360: 81d7 0080 11b3 0080 b030 0000 b71a 0000
00000370: 3f4d 0080 7855 0080 d9b0 0080 78d0 0000
00000380: 0c1b 0080 0a00 3abb 29f9 843b 4a69 1fba
00000390: b569 b63a c954 b03b da47 443b 96a9 463b
000003a0: 91d5 903b 5959 8139 7fab 933c e710 213c
000003b0: c743 7a3c 18c5 033c 2ba4 8f3a 1572 a43a
000003c0: d73c 543b 6e99 233b 5e9a d93b 6fdb 5e3c
000003d0: 2190 dd3c 39c6 a53d dea7 1abb 4498 393b
000003e0: 7d1b 003d 0c3e b7bc 5c18 c73b 9afb 163d
000003f0: d031 e3bb ebca ca3b 0970 8f3b b635 50bc

conv4.bias f4 [32]
0.040299073 0.02835442 0.054256707 0.041361667 -0.02893851 0.061228998 -4.188626e-12 0.05421255
0.04407702 0.039916743 0.042460788 0.06293937 0.04754113 0.04736554 -0.0013428332 0.06434826
-0.0030716767 0.010260781 -7.725837e-06 -3.962718e-13 -0.0003145107 -9.607282e-20 0.020755308 0.063648485
0.047283273 0.014065705 -4.1086864e-07 0.033366732 0.033321526 0.048093837 -1.3638698e-09 0.01955655
00000000: a410 253d 8747 e83c 483c 5e3d da6a 293d
00000010: 7410 edbc 42cb 7a3d ca5f 93ac fb0d 5e3d
00000020: 1b8a 343d bd7f 233d 5deb 2d3d 5be6 803d
00000030: 7dba 423d 5e02 423d 0102 b0ba 05c9 833d
00000040: 2f4e 49bb d61c 283c 389e 01b7 c914 dfaa
00000050: e9e4 a4b9 75d8 e29f 0907 aa3c 235a 823d
00000060: 1bac 413d d873 663c 5b95 dcb4 8eab 083d
00000070: 277c 083d 0bfe 443d e772 bbb0 0f35 a03c

conv5.weight f4 [32, 64, 3, 3]
1.1754529e-06 5.691575e-06 2.0940473e-05 2.2823735e-06 3.8320477e-06 2.1697617e-05 1.6089454e-07 -7.0176143e-06
1.924865e-05 -0.0008236148 -0.00034780728 -0.003531607 0.0028463071 0.00096267933 -0.0022634922 -0.006375081
-0.0036207233 -0.003690466 0.007521514 -0.0012953731 -0.01017921 0.0042038364 0.0005917293 -0.0048820837
-0.002129743 -0.00090348127 0.00090312946 -0.009011931 -0.0062799584 -0.007841947 -0.0045527895 0.002322859
0.00051230384 -0.004298206 -0.0014614589 -0.0037474441 -0.0074716937 -0.0024864618 -0.0031599652 -0.0061144633
-0.014971775 -0.017647717 -0.021047318 -0.02437875 -0.015179544 -0.013815009 -0.010911433 -0.011532156
-0.006112167 -0.004172656 -0.0073129437 -0.0037102348 -0.0062820516 -0.008127047 0.007572877 0.014080261
0.011328945 0.0022572638 0.005120633 0.00079502695 0.0014830221 0.00708263 0.0025229976 0.00028615267
0.0049755014 -0.0047293934 -0.0012533951 0.005638738 -0.0012255813 -0.004344854 0.0002580513 0.0011416301
-1.01706e-40 8.329e-41 3.7179e-41 9.0992e-41 8.3416e-41 7.8529e-41 -2.4572e-41 7.8911e-41
-1.19864e-40 -0.01212009 -0.0154196825 -0.01826238 -0.006744761 -0.006767239 -0.01094192 -0.0061898967
-0.005781486 -0.008287809 -0.0077009248 -0.00048924406 -0.002819381 0.0019163456 0.0037638163 0.0026015213
-0.002873036 0.0019589274 -0.0010525071 -0.0033752315 0.0006530225 -0.004008381 -0.0033549801 0.00035331023
-0.0013214687 -0.0074715954 -0.0054908697 -0.0039421925 -0.0018963059 0.012060055 -0.002643631 -0.006150475
0.011202442 0.007239806 0.013059131 0.0044476525 0.014668505 -0.0065478142 -0.0011377508 -0.005467298
-0.002702084 0.0012155982 -0.001842901 -0.0037371947 -0.0018912334 -0.0028829048 -0.0039552264 -0.0011071729
-0.007680517 -0.0004257439 0.0044821803 0.0015122696 -0.0009899593 0.0044479314 0.00015821055 -0.0018186201
0.0011061426 -0.0035461623 0.0008733023 0.0033651015 0.004087789 -0.0048904116 0.0006042756 0.00061972503
-0.008046701 -3.136942e-05 -0.005994622 -0.00571936 -0.0009115909 -0.0033246952 -0.008112804 -0.0068235816
-0.006553713 -8.8652286e-08 -7.0580763e-06 -5.46828e-05 2.7484276e-07 -7.226372e-06 -5.2869367e-05 1.2743242e-05
2.1525207e-06 -1.5413447e-05 9.0225e-41 4.7469e-41 -5.9125e-41 -1.2217e-41 2.4268e-41 8.5287e-41
-3.0386e-41 -3.327e-41 8.2105e-41 1.414002e-25 2.2138504e-25 2.5504063e-25 7.564461e-26 1.712322e-25
2.1507873e-25 2.6049247e-26 1.1532637e-25 1.6186175e-25 -0.0020247346 -0.0017827769 -0.0070133484 -0.0010660681
0.00010462262 -0.0018205207 -0.005228476 -0.0020145066 -0.0007934355 0.0030251292 0.0030292226 -0.008433678
0.0005256558 0.004502323 -0.0031108041 -0.0014246574 -0.00092683313 -0.0017555519 -0.00438687 0.0014579439
-0.0017328733 -0.0017182673 0.0020294446 -0.002602419 -0.0067353114 -0.0046649803 -0.0033200844 -0.004092387
-0.0004435089 -0.004316851 -0.00074585614 0.0021589939 0.00028469303 -0.0022457044 0.0008234335 -0.0008712243
-7.9319e-41 -5.5334e-41 5.47e-43 -4.444e-41 7.3026e-41 1.8074e-41 -6.358e-42 1.0727e-41
9.2267e-41 0.0013588958 0.0021452813 -0.002264987 0.003395086 0.0023791702 -0.0036076496 -0.004808826
-0.0015548206 -0.0013583058 -0.0015196556 -0.0018441039 -0.0052816225 -3.2717235e-05 0.0014082126 -0.0013207449
-0.0038575812 -0.0038081706 -0.0028628951 0.028969144 0.0122527145 -0.008280416 0.025646418 0.02775309
0.009548821 0.014809525 0.030835401 0.02450107 -0.0013619505 0.0015733592 -0.0034739906 -0.0012093162
00000000: 41c4 9d35 42fa be36 53a9 af37 e12a 1936
00000010: 0a95 8036 4703 b637 5bc2 2c34 d978 ebb6
00000020: 2978 a137 dbe7 57ba e759 b6b9 8972 67bb
00000030: 1c89 3a3b 515c 7c3a 1957 14bb 0ee6 d0bb
00000040: a849 6dbb bfdb 71bb 0877 f63b 82c9 a9ba
00000050: b4c6 26bc 56c0 893b 481e 1b3a e3f9 9fbb
00000060: 2993 0bbb 9ad7 6cba febf 6c3a c7a6 13bc
00000070: 1cc8 cdbb 827b 00bc 912f 95bb 1b3b 183b
00000080: 214c 063a f7d7 8cbb 6c8e bfba ae97 75bb
00000090: 1cd5 f4bb e8f3 22bb 6b17 4fbb d65b c8bb
000000a0: 2d4c 75bc f291 90bc 6d6b acbc f2b5 c7bc
000000b0: 9fb3 78bc 5958 62bc dec5 32bc 5ef1 3cbc
000000c0: 9348 c8bb c7ba 88bb 6ba1 efbb 6927 73bb
000000d0: abd9 cdbb 4e27 05bc e625 f83b e5b0 663c
000000e0: 0a9d 393c 9aee 133b fcca a73b 5b69 503a
000000f0: f761 c23a 6815 e83b e058 253b c306 9639
00000100: 8809 a33b 07f9 9abb f648 a4ba 2ac5 b83b
00000110: afa3 a0ba 475f 8ebb 0f4b 8739 c0a2 953a
00000120: 841b 0180 2ee8 0000 a467 0000 a6fd 0000
00000130: 88e8 0000 e8da 0000 7f44 0080 f9db 0000
00000140: 224e 0180 5893 46bc d6a2 7cbc fd9a 95bc
00000150: 2803 ddbb b7bf ddbb bd45 33bc 9ed4 cabb
00000160: 9f72 bdbb 97c9 07bc 0a58 fcbb 9d40 00ba
00000170: 5dc5 38bb e32d fb3a 5caa 763b 497e 2a3b
00000180: 8c49 3cbb 5961 003b 47f4 89ba fd32 5dbb
00000190: 992f 2b3a bd58 83bb 3adf 5bbb 7f3c b939
000001a0: 2235 adba 49d4 f4bb c1ec b3bb 822d 81bb
000001b0: 788d f8ba 8997 453c c540 2dbb ec89 c9bb
000001c0: 738a 373c e53b ed3b f7f5 553c 9dbd 913b
000001d0: 2b54 703c 0c8f d6bb 9520 95ba 0527 b3bb
000001e0: 7215 31bb b554 9f3a 7f8d f1ba b9eb 74bb
000001f0: 43e3 f7ba 1eef 3cbb d89a 81bb 8f1e 91ba
00000200: d9ac fbbb 6136 dfb9 41df 923b 5937 c63a
00000210: 86c1 81ba f4bf 913b 52e5 2539 c45e eeba
00000220: fdfb 903a bb66 68bb 53ee 643a 0989 5c3b
00000230: dcf2 853b bf3f a0bb 4068 1e3a 0b75 223a
00000240: 4fd6 03bc a992 03b8 896e c4bb 7869 bbbb
00000250: d4f7 6eba 21e3 59bb 91eb 04bc 5a98 dfbb
00000260: 88c0 d6bb 1c61 beb3 6ad4 ecb6 365b 65b8
00000270: 1a8e 9334 107a f2b6 0dc0 5db8 cfcb 5537
00000280: 0674 1036 204c 81b7 83fb 0000 5384 0000
00000290: d1a4 0080 0e22 0080 a643 0000 bfed 0000
000002a0: b454 0080 be5c 0080 e0e4 0000 830b 2f16
000002b0: dc07 8916 cddc 9d16 7849 bb15 a6f9 5316
000002c0: 9620 8516 58fd 0015 63c4 0e16 0960 4816
000002d0: 69b1 04bb 11ac e9ba 3bd0 e5bb 4fbb 8bba
000002e0: d768 db38 8a9e eeba a353 abbb d005 04bb
000002f0: 8efe 4fba 3f41 463b ec85 463b 692d 0abc
00000300: 2acc 093a 3988 933b a2de 4bbb 92bb baba
00000310: b8f6 72ba 8c1a e6ba bcbf 8fbb 7b18 bf3a
00000320: 9421 e3ba 7c37 e1ba 6e00 053b 588d 2abb
00000330: e3b3 dcbb b1dc 98bb c695 59bb 6e19 86bb
00000340: c286 e8b9 5f74 8dbb 8f85 43ba e87d 0d3b
00000350: da42 9539 ab2c 13bb b0db 573a e062 64ba
00000360: 1cdd 0080 409a 0080 8601 0000 e17b 0080
00000370: 91cb 0000 6232 0000 b911 0080 e71d 0000
00000380: 3401 0100 fa1c b23a d997 0c3b 2d70 14bb
00000390: 1780 5e3b daeb 1b3b 516e 6cbb 5b93 9dbb
000003a0: 1fcb cbba 2e09 b2ba 2e2f c7ba dcb5 f1ba
000003b0: 7611 adbb dd39 09b8 c693 b83a d81c adba
000003c0: 79cf 7cbb 8092 79bb 699f 3bbb b350 ed3c
000003d0: 9cbf 483c 95aa 07bc 7018 d23c 735a e33c
000003e0: a872 1c3c a6a3 723c 869a fc3c 78b6 c83c
000003f0: 7a83 b2ba 2d39 ce3a e4ab 63bb eb81 9eba

conv5.bias f4 [32]
-0.022248738 0.04947053 0.06301486 0.023951432 0.024101738 0.036465526 0.03858715 0.022603843
0.040315535 0.028990194 0.022507248 0.058545098 0.038914043 0.03219486 0.034093782 0.051769864
0.0045108143 0.03453218 0.042811394 -0.023361078 0.037363976 0.017010232 0.031597372 0.032619365
0.025319139 0.005103062 -1.9340335e-14 0.065043084 0.007549724 0.0300915 -2.5349611e-06 -0.0014518577
00000000: fc42 b6bc 9ca1 4a3d ef0d 813d cb35 c43c
00000010: 0271 c53c e05c 153d 8f0d 1e3d b22b b93c
00000020: e721 253d d87c ed3c 1f61 b83c fccc 6f3d
00000030: 5564 1f3d c2de 033d eca5 0b3d a30c 543d
00000040: 74cf 933b 9d71 0d3d 005b 2f3d bb5f bfbc
00000050: f80a 193d 0b59 8b3c 3f6c 013d e29b 053d
00000060: 156a cf3c 9637 a73b c733 aea8 4f35 853d
00000070: ad63 f73b 7382 f63c 4d1e 2ab6 434c beba

conv6.weight f4 [32, 64, 3, 3]
0.0020065648 0.009378041 0.0030782756 0.0018645902 0.00014916674 -0.009053798 -0.0073113944 -0.011590996
-0.02548107 -0.028678278 0.005213086 0.032022376 -0.02563341 -0.00063718436 0.014762387 -0.017437156
-0.0052589052 0.009771996 -0.006311058 0.008646368 0.012793401 -0.0036141528 0.007850241 0.017728802
-0.009648567 -0.004192708 0.0053383163 -2.7168e-41 2.7978e-41 -5.1977e-41 -6.075e-42 -6.6026e-41
8.418e-42 2.4643e-41 -2.8606e-41 -7.1578e-41 0.010632456 0.04594805 0.017007114 0.005537095
0.0130998995 0.019978123 -0.0003145953 -0.016689861 -0.0009450623 1.007965e-39 -8.5201e-40 6.0371e-41
1.5838976e-38 -9.56281e-40 4.7916e-41 4.8664926e-38 9.59741e-40 -2.276e-41 0.014331237 0.02450163
0.031135699 0.010282005 0.010643198 0.017725756 0.014394217 0.013336002 0.018835995 0.000838995
0.0037506265 -0.016134905 0.008179523 0.010056922 -0.011128955 -0.024356473 -0.015375256 -0.010177812
-2.7304e-41 1.478e-41 -7.4755e-41 9.1244e-41 -6.7195e-41 -6.915e-41 -4.0961e-41 -8.5706e-41
7.9374e-41 0.004352767 0.01954708 0.0061693694 0.011763709 0.008714448 0.017322998 0.0073136776
0.008395277 -0.0019530794 -0.00611362 0.0027235518 0.029099679 0.006768575 0.015239756 0.0133051155
-0.012668201 -0.00026534006 0.0039043976 0.01578805 0.0047541475 -0.0029915103 0.012853963 0.0044069057
0.013568671 -0.00416137 -0.02682155 -0.009614192 -0.013853025 0.030717148 0.010314229 0.0028079466
0.009078336 0.009612912 -0.0047494937 -0.009041979 -0.009877848 -8.4627e-41 7.1983e-41 -9.7659e-41
1.1286e-40 1.03542e-40 3.7153e-41 1.08186e-40 8.1352e-41 -5.9927e-41 0.018856881 0.032069128
0.010084617 -0.013256424 0.0064411736 0.008538426 0.0037529473 -0.023052407 -0.0108336685 -3.838995e-05
-4.3902077e-05 -7.059264e-05 -3.813202e-05 -3.696894e-05 -5.3799202e-05 -3.482503e-05 -3.102627e-05 -3.8257036e-05
0.002315367 0.0031136724 0.011133621 0.00087212503 0.006985476 0.018482972 0.0044371593 -0.007769287
-0.008648194 0.021681976 0.026267005 0.0006887644 0.008854508 -0.0044270605 0.004405653 0.0055435044
-0.00688318 -0.0163542 0.001222851 0.012106205 0.0059450786 0.00946113 0.012831096 0.020010415
0.0030044466 0.010673558 0.002343347 -0.0012880195 0.0010945229 -0.010146173 -0.0040874844 -0.009773115
-0.019650117 -0.01065767 -0.017194778 -0.025562761 9.913263e-09 1.43833665e-08 2.2079744e-08 1.1824544e-08
1.6680062e-08 2.53487e-08 1.1242531e-08 1.5502904e-08 2.3770811e-08 0.028452875 0.017199315 0.0118268365
0.005552083 -0.016496215 0.007703101 -0.007817148 0.0029761647 -0.010903786 1.0605746e-35 1.08348996e-35
1.0643987e-35 1.0721474e-35 1.0394539e-35 1.0141403e-35 6.163971e-36 5.3303625e-36 4.924166e-36 -3.2807e-16
-1.1876899e-16 -1.3911002e-17 -1.474989e-15 -5.5504206e-16 -5.6637e-17 -4.038963e-15 -1.9283419e-15 -2.4747621e-16
-0.009642618 0.024663387 0.0004669757 0.013080717 -0.00818108 0.017162712 0.014115991 0.02377274
0.008925689 -0.015060064 0.007368882 0.011126012 -0.0061170845 0.021165257 0.028253773 0.014873099
0.030823238 0.02712255 -0.00996808 -0.006646494 0.0024930951 0.0021779956 0.01413784 -0.0046904474
0.0043668738 -0.012131957 -0.0033841317 -0.012578224 0.0036564309 0.027296536 -0.0051388144 0.004012782
0.01759174 -0.008625361 -0.005202199 0.003503521 1.93876e-07 1.9468486e-07 1.469236e-07 2.3001444e-07
00000000: 9280 033b 5ba6 193c e5bc 493b 4465 f43a
00000010: a469 1c39 6256 14bc 6c94 efbb 29e8 3dbc
00000020: adbd d0bc b5ee eabc 89d2 aa3b e529 033d
00000030: 28fd d1bc b808 27ba f0dd 713c 5ed8 8ebc
00000040: e552 acbb b91a 203c fecc cebb 7fa9 0d3c
00000050: 6a9b 513c 6cdb 6cbb 4c9e 003c fe3b 913c
00000060: 0615 1ebc fc62 89bb 0bed ae3b bc4b 0080
00000070: fe4d 0000 e490 0080 ef10 0080 0eb8 0080
00000080: 7717 0000 b244 0000 be4f 0080 88c7 0080
00000090: c133 2e3c 0634 3c3d 8152 8b3c 8570 b53b
000000a0: f6a0 563c 29a9 a33c 44f0 a4b9 2db9 88bc
000000b0: 0fbe 77ba ccf9 0a00 0f47 0980 4aa8 0000
000000c0: 9f78 ac00 b969 0a80 9285 0000 817a 8401
000000d0: 5e73 0a00 723f 0080 91cd 6a3c a4b7 c83c
000000e0: 4b10 ff3c db75 283c cf60 2e3c 9b35 913c
000000f0: b9d5 6b3c 3f7f 5a3c f24d 9a3c 00f0 5b3a
00000100: 12cd 753b 592d 84bc 6803 063c cac5 243c
00000110: 3856 36bc 3a87 c7bc 7fe8 7bbc d6c0 26bc
00000120: 1d4c 0080 3329 0000 63d0 0080 5afe 0000
00000130: 50bb 0080 c3c0 0080 2f72 0080 eaee 0080
00000140: 43dd 0000 a8a1 8e3b 3321 a03c 6c28 ca3b
00000150: 92bc 403c 0bc7 0e3c f6e8 8d3c 93a7 ef3b
00000160: 588c 093c 78fe ffba c354 c8bb 9e7d 323b
00000170: 7362 ee3c ecca dd3b 2bb0 793c b3fd 593c
00000180: 498e 4fbc 571d 8bb9 ece0 7f3b f155 813c
00000190: aec8 9b3b 370d 44bb 6e99 523c ce67 903b
000001a0: 224f 5e3c 1a5c 88bb deb8 dbbc d884 1dbc
000001b0: ccf7 62bc 87a2 fb3c 03fd 283c 8705 383b
000001c0: 4dbd 143c 7a7f 1d3c a4a1 9bbb cf24 14bc
000001d0: b3d6 21bc e8eb 0080 a9c8 0000 3c10 0180
000001e0: 9c3a 0100 a220 0100 9167 0000 942d 0100
000001f0: c7e2 0000 0da7 0080 bf79 9a3c eb5a 033d
00000200: f339 253c 7931 59bc 7b10 d33b c1e4 0b3c
00000210: 02f4 753b 67d8 bcbc b37f 31bc e504 21b8
00000220: 7f23 38b8 230b 94b8 f2ef 1fb8 190f 1bb8
00000230: 74a6 61b8 1711 12b8 3422 02b8 2e76 20b8
00000240: 6abd 173b c10e 4c3b cb69 363c 529f 643a
00000250: 6be6 e43b 9a69 973c 9765 913b 8195 febb
00000260: 28b1 0dbc 669e b13c e72d d73c 328e 343a
00000270: 8012 113c e010 91bb 4c5d 903b 49a6 b53b
00000280: 4c8c e1bb 3ef9 85bc 1248 a03a 1b59 463c
00000290: efce c23b db02 1b3c 8439 523c e2ec a33c
000002a0: 40e6 443b 26e0 2e3c d792 193b c3d2 a8ba
000002b0: 1876 8f3a 223c 26bc 4ef0 85bb 6a1f 20bc
000002c0: 48f9 a0bc 829d 2ebc 10dc 8cbc ff68 d1bc
000002d0: fe4e 2a32 b71a 7732 dfa9 bd32 e524 4b32
000002e0: d847 8f32 61be d932 2d25 4132 3f2b 8532
000002f0: 9130 cc32 0116 e93c 94e5 8c3c 59c5 413c
00000300: 3fee b53b 1223 87bc 4b6a fc3b 7f13 00bc
00000310: c20b 433b cba5 32bc 2c8f 6105 ce6e 6605
00000320: 615f 6205 4205 6405 4111 5d05 0daf 5705
00000330: da17 0305 82ba e204 6b73 d104 961e bda5
00000340: 6bee 08a5 6d4e 80a3 7d91 d4a6 e0fa 1fa6
00000350: 9598 82a4 dc84 91a7 a1f3 0aa7 0ba9 8ea5
00000360: 12fc 1dbc df0a ca3c 6bd4 f439 8150 563c
00000370: f009 06bc d198 8c3c c246 673c 0dbf c23c
00000380: 0e3d 123c 7dbe 76bc aa76 f13b e049 363c
00000390: d371 c8bb c362 ad3c 7574 e73c 4cae 733c
000003a0: 0481 fc3c 1c30 de3c 2851 23bc d5ca d9bb
000003b0: 3263 233b b4bc 0e3b 66a2 673c 53b2 99bb
000003c0: fe17 8f3b 1ec5 46bc 4fc8 5dbb e514 4ebc
000003d0: bba0 6f3b fc9c df3c 8063 a8bb a87d 833b
000003e0: 8d1c 903c 6351 0dbc 3577 aabb 549b 653b
000003f0: 3b2c 5034 910a 5134 0dc2 1d34 e3f9 7634

conv6.bias f4 [32]
0.030465622 0.036751382 0.0608293 6.0141476e-05 0.0650379 0.023331463 -2.4052294e-08 0.052579515
0.05897896 0.05185808 0.051377162 0.0057238415 -0.0012562915 0.041094054 -9.529003e-06 0.07506471
-4.1911568e-07 0.0370714 -0.00010130978 0.0508324 0.027897451 -2.4514243e-15 0.043898 0.03891058
0.03740693 0.08468945 0.037730597 0.030639827 0.06305558 0.04044459 -3.7719142e-29 0.020095972
00000000: 0a93 f93c 9e88 163d 2528 793d 6b40 7c38
00000010: 9732 853d a021 bf3c 8e9b ceb2 9e5d 573d
00000020: ec93 713d 2369 543d dc70 523d 108f bb3b
00000030: 26aa a4ba 3d52 283d c2de 1fb7 87bb 993d
00000040: d202 e1b4 2ed8 173d 4676 d4b8 a235 503d
00000050: 3289 e43c cca4 30a7 64ce 333d b360 1f3d
00000060: 0238 193d aa71 ad3d 668b 1a3d 6000 fb3c
00000070: 4923 813d 3aa9 253d 3f42 3f90 4fa0 a43c
